trained_models/tflite_models/model1.tflite (tflite, 7680 bytes, 8 tensors)

sequential_4/dense_17/MatMul f4 [7, 10]
0.90926915 -1.2617328 -0.93660504 -1.0043521 -1.6692742 0.97890514 0.90339565 -3.2177463
-2.3749402 -1.307933 1.2102196 -0.42506638 1.2058663 -0.32178137 -1.3124294 -1.64563
-1.5793028 -0.91745204 1.3592595 -1.2786717 -0.8627264 0.30657563 -2.0460196 -0.9022476
0.52656555 0.7879424 0.4644449 0.18583685 1.148139 1.4769404 -0.44861275 1.1904421
0.6415233 -0.58221847 2.353675 -0.19174609 -1.887136 0.11822604 -1.0590336 -0.83822817
0.32856488 -0.9564356 -0.10778764 -1.7727962 0.83254474 -2.3893383 1.1271126 0.49890152
0.9270353 -0.08676015 1.0118101 -0.5615225 -0.28578654 0.82770056 -0.2099348 -0.3052522
-1.1610527 1.3542646 -0.41958076 1.5489492 -1.4204695 1.3280067 0.30732444 0.73898464
-0.33970407 -0.7094096 0.78931373 0.3398316 -0.41264558 -0.761484
00000000: ddc5 683f 7680 a1bf 59c5 6fbf 9c8e 80bf
00000010: c7aa d5bf 8799 7a3f f044 673f 8eef 4dc0
00000020: 05ff 17c0 596a a7bf 7ae8 9a3f 4da2 d9be
00000030: d459 9a3f 87c0 a4be b0fd a7bf 01a4 d2bf
00000040: 9826 cabf 23de 6abf 37fc ad3f 84ab a3bf
00000050: a3db 5cbf 7bf7 9c3e fcf1 02c0 b3f9 66bf
00000060: 00cd 063f 98b6 493f b9cb ed3e 044c 3e3e
00000070: 38f6 923f 620c bd3f 92b0 e5be 6860 983f
00000080: df3a 243f 450c 15bf 9ca2 1640 1659 44be
00000090: ac8d f1bf 7e20 f23d 6a8e 87bf 1f96 56bf
000000a0: a839 a83e f7d8 74bf c4bf dcbd fcea e2bf
000000b0: a721 553f ebea 18c0 3a45 903f 0570 ff3e
000000c0: 2f52 6d3f 4eaf b1bd fe82 813f f0bf 0fbf
000000d0: 9d52 92be 2fe4 533f 26f9 56be 044a 9cbe
000000e0: 609d 94bf 8b58 ad3f 4ad3 d6be f843 c63f
000000f0: f2d1 b5bf 20fc a93f a159 9d3e 192e 3d3f
00000100: b1ed adbe de9b 35bf 7710 4a3f 68fe ad3e
00000110: 4846 d3be 9ef0 42bf

sequential_4/dense_16/MatMul f4 [10, 20]
0.34178922 2.3879597 2.0213702 0.064320214 0.6441541 0.9756437 0.07417452 1.3463616
0.13994803 -0.68477297 -0.75571954 -0.14825371 0.108488195 0.08982991 -1.2693408 0.32166877
-0.24783173 -0.2801417 -0.36100486 1.0605115 -0.0051110643 -1.5051422 -0.8844797 1.5103166
-0.5973761 -0.8643931 -0.018432345 0.24797547 -0.09121582 0.26819116 0.98335695 -0.94120544
0.5989732 -0.11579521 -0.27874008 1.144757 1.6694387 0.70605636 0.6476222 0.79318535
0.0034916198 0.64408684 0.8742057 -0.019589934 0.94676834 -0.20745711 1.0441265 1.2114458
0.849733 -0.3855473 1.1781914 -0.77616084 1.3745066 0.7537391 -0.16354212 0.32649007
0.19785169 1.0278999 -0.20404446 1.4254075 1.4882301 0.061289765 1.1896625 0.32028186
0.109328285 -0.4613369 0.06353175 1.5022144 0.15466835 -0.14488208 1.3297634 -1.2292739
1.8585995 0.12878396 -0.53291184 0.88381135 1.687116 -0.012392813 1.0072014 -0.5309681
-0.5365213 -0.08593089 -0.5965348 0.63618296 0.72907084 -0.13956536 -1.5525433 0.62623304
-2.536373 -0.24431343 1.19972 0.5229966 0.18801825 -2.1679285 0.9194209 0.6531503
0.9078798 0.8482224 -1.4926587 1.3219557 0.91688025 -0.44831428 -0.06359575 1.7792714
0.000691193 0.09182599 -0.19188333 -0.03293935 -0.09001355 -0.24107292 -0.8442043 0.38042784
-0.023934979 -0.12608758 -1.3167766 1.2041912 0.9525597 -0.97492445 0.28455046 -1.3313893
1.5664301 -0.12515312 -2.2211514 0.8949362 0.33044603 1.501578 0.7669294 -1.8647734
0.74366146 1.7540363 0.0069944244 2.6969638 -0.7161632 0.72047347 1.3248192 0.6906135
0.043243133 0.43979803 0.77746755 -2.6729448 -0.2515595 -0.18106496 -0.87408566 0.42875192
1.1072652 0.22070765 0.30318403 -0.56452394 0.5340846 2.0059159 -0.15549158 1.007175
-0.62613046 0.4578862 2.4661734 -0.94717824 -0.11056896 2.4896493 0.09008732 -0.49163082
0.3349109 -0.7042264 0.5701563 -0.3306292 -0.768692 0.037266683 0.08285033 0.35164598
0.008519871 0.5306464 0.122552894 -0.36932555 0.45214438 -0.010471323 1.2040992 -0.09231279
-0.03500288 0.41016987 -0.6855636 0.6570519 0.9180304 0.3023973 0.6333377 -0.27599624
-2.9697878 1.175516 -2.6623302 0.14704351 -2.267666 0.23415361 -2.1151557 0.33462942
0.1430543 -2.9180129 0.4464611 0.5436333 0.9875104 -1.2446032 1.4305652 -1.2090899
00000000: fffe ae3e 55d4 1840 215e 0140 51ba 833d
00000010: 48e7 243f c9c3 793f d0e8 973d 9455 ac3f
00000020: 894e 0f3e 484d 2fbf d676 41bf d2cf 17be
00000030: 0f2f de3d bef8 b73d c279 a2bf c5b1 a43e
00000040: 9ac7 7dbe bc6e 8fbe a1d5 b8be d7be 873f
00000050: b77a a7bb 80a8 c0bf 436d 62bf 0e52 c13f
00000060: a4ed 18bf de48 5dbf 6eff 96bc 48ed 7d3e
00000070: 5ccf babd 5a50 893e 48bd 7b3f d7f2 70bf
00000080: 4f56 193f 0a26 edbd 05b7 8ebe 6687 923f
00000090: 2bb0 d53f 1cc0 343f 92ca 253f 320e 4b3f
000000a0: a9d3 643b e0e2 243f f2cb 5f3f 127b a0bc
000000b0: 695f 723f a36f 54be f0a5 853f a810 9b3f
000000c0: 1a88 593f 7566 c5be face 963f 7ab2 46bf
000000d0: d5ef af3f 0cf5 403f 9677 27be b529 a73e
000000e0: a299 4a3e 3992 833f 08f1 50be c173 b63f
000000f0: 537e be3f fa0a 7b3d dc46 983f fcfb a33e
00000100: 82e7 df3d 5a34 ecbe ef1c 823d 9048 c03f
00000110: 6161 1e3e f85b 14be b035 aa3f d958 9dbf
00000120: 97e6 ed3f f1df 033e e96c 08bf 7641 623f
00000130: 6bf3 d73f 3a0b 4bbc faeb 803f 87ed 07bf
00000140: 7659 09bf 89fc afbd 81b6 18bf e3dc 223f
00000150: 63a4 3a3f 39ea 0ebe bdb9 c6bf cf50 203f
00000160: ef53 22c0 4d2d 7abe 6d90 993f 1be3 053f
00000170: db87 403e 57bf 0ac0 2b5f 6b3f dc34 273f
00000180: d06a 683f 1a25 593f 710f bfbf d835 a93f
00000190: aab8 6a3f 7389 e5be 7d3e 82bd 2abf e33f
000001a0: 2d31 353a 440f bc3d 107d 44be 69eb 06bd
000001b0: 0659 b8bd d2db 76be c61d 58bf 70c7 c23e
000001c0: 4a13 c4bc 1a1d 01be 238c a8bf f022 9a3f
000001d0: f4da 733f a694 79bf 99b0 913e f76a aabf
000001e0: c880 c83f 2428 00be 5827 0ec0 8a1a 653f
000001f0: 3930 a93e b533 c03f 7c55 443f e5b0 eebf
00000200: 9960 3e3f 4384 e03f 7c31 e53b 0e9b 2c40
00000210: 7956 37bf f370 383f ad93 a93f 0ccc 303f
00000220: b61f 313d 352d e13e 1d08 473f 8711 2bc0
00000230: 68cc 80be 1869 39be 14c4 5fbf 5f85 db3e
00000240: deba 8d3f 3001 623e f03a 9b3e a484 10bf
00000250: c5b9 083f ed60 0040 2f39 1fbe 1ceb 803f
00000260: 164a 20bf 0f70 ea3e c9d5 1d40 467a 72bf
00000270: fb71 e2bd 6a56 1f40 b37f b83d 09b7 fbbe
00000280: 7179 ab3e 2e48 34bf c3f5 113f 3b48 a9be
00000290: 00c9 44bf f3a4 183d 6fad a93d f10a b43e
000002a0: ee96 0b3c 71d8 073f 03fd fa3d 3d18 bdbe
000002b0: 787f e73e e98f 2bbc ec1f 9a3f 7d0e bdbd
000002c0: 2e5f 0fbd c901 d23e 1981 2fbf 8e34 283f
000002d0: 0a04 6b3f d2d3 9a3e 6b22 223f 614f 8dbe
000002e0: 0111 3ec0 4f77 963f 9e63 2ac0 9392 163e
000002f0: 7121 11c0 f7c5 6f3e b65e 07c0 8c54 ab3e
00000300: d47c 123e b9c0 3ac0 8d96 e43e 8d2b 0b3f
00000310: 7bcd 7c3f 284f 9fbf c31c b73f 75c3 9abf

sequential_4/dense_15/MatMul f4 [20, 30]
-0.9400954 0.1405632 1.7226223 -0.46637592 -0.113685 -0.338532 -0.14594315 -0.174997
-0.23720808 1.5621371 -0.3457078 1.031924 -0.13838859 -1.6793958 0.32812417 -0.016479323
-1.5898331 0.0753015 0.89850974 -0.18657336 1.3217943 1.0210364 -0.9414336 0.23697361
0.41492522 -0.28676212 -0.1426221 -0.89907306 -0.19808006 -0.023011057 -0.03784231 2.2577555
-0.36919895 -0.27547553 -0.3633525 -0.05522999 0.29601127 -1.5007565 -1.1917461 0.35853153
-0.15659404 -1.7321543 -0.2822708 0.031306155 0.23289281 0.17883506 1.8872108 -0.23280445
-0.053728558 -0.0050720326 -0.09270609 0.08821632 -0.049529403 -0.07841408 -0.078689195 -0.12983133
2.0168314 -0.5558545 -0.14741036 0.20426308 0.0900149 1.167621 -0.051081404 -0.74900144
-0.55932933 -0.20309734 -0.18825799 -1.0217481 -1.733654 0.61793554 0.25801754 -1.1151469
-0.101614624 -0.25707567 0.19013333 0.7391146 1.0181314 -0.03741026 -1.3602165 -0.44498798
0.20277755 -0.47323734 -1.799601 0.19187011 -1.2458586 -0.54175156 0.70399797 -0.92699474
-0.63634723 0.0047092307 -0.42980292 -1.2636588 0.5495915 -0.056894083 0.4558123 -0.09019679
0.03914056 1.8764833 0.38987282 -1.0387045 -0.3026003 3.2511985 0.13658455 -0.46964318
-0.22979659 -0.6321638 -1.4375263 0.14699188 0.28339553 -0.22951281 -0.9068959 0.76112914
0.085117765 -0.23380111 0.36377448 -0.20035402 -0.804917 0.3747345 0.11648816 -0.22850056
0.64637613 -0.09532653 -1.9970309 0.25877544 -0.051049836 0.19532275 -0.040520225 -0.7662257
0.9442779 -3.1115146 -0.2921411 -1.9497681 -0.12090927 0.8063826 0.11931643 -0.35343838
1.3258871 -0.11717759 -0.23011132 0.15850405 -0.7177753 0.07604603 0.5621751 0.15206888
0.29107493 2.1492274 0.1292813 1.8946223 -0.2533624 -0.19991806 -0.73260623 0.18616101
0.25452265 -0.341839 -0.9861318 0.1753363 -0.121076226 -0.6139158 -2.2330136 0.78649956
-0.2806529 -0.466774 -0.003177017 0.062084645 0.06483057 -0.5601638 0.8369881 0.019480824
0.14576356 0.6116481 1.1834655 1.1892812 -0.043869555 -0.2445675 0.87633926 -2.4863665
-0.09387647 -0.481383 -0.03614774 0.012598342 1.6904866 -0.09475114 -0.50911915 0.32802674
0.7435908 0.2425232 -0.031184945 -0.4434862 0.11407249 -2.0927417 0.1490657 0.16596858
0.023731679 1.6852124 -0.09610343 0.18137984 0.49097028 0.08850905 0.6196922 0.13723697
-0.2546992 -0.11228943 1.8704438 -0.17564791 -0.20342271 -1.7225659 -0.0805004 -1.4603732
1.7123666 -0.32953346 -0.25999156 1.4690214 -0.21285318 -0.9497901 -0.25156677 -0.07329908
0.10192862 0.02503996 0.011891421 0.539752 -0.26459828 -1.2142476 -0.21897638 -0.2979298
-0.04738316 0.8810334 1.4586488 0.2543553 -1.9041268 -0.86771345 -0.0036536318 -0.6614041
-2.66366 -0.08956927 -2.2250576 0.40452045 0.97105956 0.5306942 -1.5157176 -0.33488834
1.3891118 -0.11202513 -0.3605617 1.0873458 0.43245518 0.32759517 -0.27866128 -0.42195544
-0.11373256 -1.801686 0.00042563584 -0.0064176377 -0.30278316 1.8987257 0.015450388 0.15452893
00000000: 18aa 70bf cdef 0f3e e37e dc3f d3c8 eebe
00000010: aed3 e8bd 1154 adbe 1f72 15be 6a32 33be
00000020: ade6 72be 1cf4 c73f 9d00 b1be 1616 843f
00000030: bdb5 0dbe 71f6 d6bf e4ff a73e a5ff 86bc
00000040: a77f cbbf ac37 9a3d bc04 663f 160d 3fbe
00000050: 8e30 a93f 52b1 823f cb01 71bf 36a9 723e
00000060: 1471 d43e 7cd2 92be 870b 12be a729 66bf
00000070: 80d5 4abe af81 bcbc 8a00 1bbd 117f 1040
00000080: a507 bdbe 210b 8dbe 5709 babe d838 62bd
00000090: ca8e 973e ca18 c0bf 238b 98bf 7291 b73e
000000a0: 305a 20be 3bb7 ddbf cc85 90be e23a 003d
000000b0: 747b 6e3e 8a20 373e 2090 f13f 4a64 6ebe
000000c0: 7a12 5cbd 4b33 a6bb b1dc bdbd c2aa b43d
000000d0: 58df 4abd 9097 a0bd cd27 a1bd 81f2 04be
000000e0: c413 0140 7b4c 0ebf bef2 16be 572a 513e
000000f0: bb59 b83d 9b74 953f bc3a 51bd 8fbe 3fbf
00000100: 3530 0fbf c0f8 4fbe b4c6 40be a4c8 82bf
00000110: 60e8 ddbf 0631 1e3f e01a 843e 22bd 8ebf
00000120: 541b d0bd 6c9f 83be 50b2 423e 9d36 3d3f
00000130: 2152 823f 803b 19bd 931b aebf 77d5 e3be
00000140: eba4 4f3e 2a4c f2be 5359 e6bf 9979 443e
00000150: 4b78 9fbf 3bb0 0abf 3639 343f 874f 6dbf
00000160: a7e7 22bf e44f 9a3b 210f dcbe 92bf a1bf
00000170: 07b2 0c3f c509 69bd 3b60 e93e 18b9 b8bd
00000180: da51 203d 9b30 f03f 699d c73e 45f4 84bf
00000190: 6dee 9abe a313 5040 d2dc 0b3e 1275 f0be
000001a0: cc4f 6bbe 7dd5 21bf dd00 b8bf 0a85 163e
000001b0: 3819 913e 6805 6bbe 542a 68bf 5cd9 423f
000001c0: 3952 ae3d 8f69 6fbe a640 ba3e 9b29 4dbe
000001d0: 0a0f 4ebf 33dd bf3e 5891 ee3d 0dfc 69be
000001e0: e878 253f 8e3a c3bd b59e ffbf 377e 843e
000001f0: a219 51bd b002 483e 89f8 25bd 5e27 44bf
00000200: 32bc 713f 0e23 47c0 8593 95be 0092 f9bf
00000210: 489f f7bd 176f 4e3f 2c5c f43d e0f5 b4be
00000220: abb6 a93f cefa efbd 4da2 6bbe e34e 223e
00000230: 1fc0 37bf 05be 9b3d b5ea 0f3f f2b7 1b3e
00000240: c607 953e f18c 0940 5162 043e fc82 f23f
00000250: b7b8 81be 52b7 4cbe 158c 3bbf fea0 3e3e
00000260: cb50 823e 8505 afbe 2273 7cbf 5c8b 333e
00000270: d0f6 f7bd 9629 1dbf b2e9 0ec0 0958 493f
00000280: bdb1 8fbe 00fd eebe 8035 50bb 784c 7e3d
00000290: e4c5 843d e566 0fbf da44 563f 4096 9f3c
000002a0: 0b43 153e f894 1c3f cc7b 973f 5e3a 983f
000002b0: 90b0 33bd e76f 7abe c557 603f a120 1fc0
000002c0: 4f42 c0bd d577 f6be a70f 14bd 4769 4e3c
000002d0: dd61 d83f e30c c2bd a255 02bf 1ff3 a73e
000002e0: f75b 3e3f 0058 783e 9277 ffbc a010 e3be
000002f0: d69e e93d 7bef 05c0 aea4 183e abf3 293e
00000300: f068 c23c 0ab5 d73f e0d1 c4bd a3bb 393e
00000310: 7560 fb3e 3c44 b53d 26a4 1e3f d987 0c3e
00000320: ef67 82be 00f8 e5bd b46a ef3f 0cdd 33be
00000330: 0b4e 50be 0a7d dcbf 65dd a4bd 82ed babf
00000340: d42e db3f 9cb8 a8be 9d1d 85be e508 bc3f
00000350: 2ff6 59be 7225 73bf 5ccd 80be d41d 96bd
00000360: f4bf d03d 9a20 cd3c 3cd4 423c 302d 0a3f
00000370: 6d79 87be 776c 9bbf 583b 60be 418a 98be
00000380: d814 42bd 688b 613f 01b5 ba3f dc3a 823e
00000390: 6dba f3bf 7822 5ebf c571 6fbb c751 29bf
000003a0: 6879 2ac0 1870 b7bd 5867 0ec0 4e1d cf3e
000003b0: 5c97 783f 93db 073f 0903 c2bf 7c76 abbe
000003c0: 6ace b13f 6e6d e5bd 8b9b b8be 262e 8b3f
000003d0: c46a dd3e 8eba a73e b1ac 8ebe 8b0a d8be
000003e0: 9eec e8bd a69d e6bf e027 df39 0c4b d2bb
000003f0: 6506 9bbe 7209 f33f a023 7d3c d53c 1e3e

sequential_4/dense_17/BiasAdd/ReadVariableOp f4 [7]
1.0099605 0.5126843 -0.09878618 0.35703483 -0.42640847 -0.5697303 -0.89430267
00000000: 6346 813f 473f 033f 6950 cabd 45cd b63e
00000010: 3652 dabe d8d9 11bf 05f1 64bf

sequential_4/dense_16/BiasAdd/ReadVariableOp f4 [10]
1.2765577 0.13668187 0.7499602 0.21591002 0.35563403 1.3024397 0.5848438 -0.32480508
0.18671799 0.3735904
00000000: 3e66 a33f 55f6 0b3e 64fd 3f3f 8417 5d3e
00000010: aa15 b63e 58b6 a63f 53b8 153f da4c a6be
00000020: 0033 3f3e 3e47 bf3e

sequential_4/dense_15/BiasAdd/ReadVariableOp f4 [20]
0.030687453 0.11852392 0.06716334 0.10495585 0.055170048 0.06788428 0.030970901 0.07523411
0.015570816 -0.13270609 -0.015612186 0.034303922 0.016692316 0.029848233 -0.1667657 0.085323974
0.054775827 -0.10523654 0.009822836 0.055629667
00000000: 4164 fb3c abbc f23d ef8c 893d 18f3 d63d
00000010: fdf9 613d ea06 8b3d b0b6 fd3c 5714 9a3d
00000020: bc1c 7f3c 1be4 07be 41ca 7fbc 4582 0c3d
00000030: 53be 883c 4884 f43c a1c4 2abe 56be ae3d
00000040: 9e5c 603d 4186 d7bd f6ef 203c efdb 633d

sequential_4/dense_14/BiasAdd/ReadVariableOp f4 [30]
-0.06607683 -0.049358457 -0.14380026 0.13537934 -0.15405491 0.0 -0.010557993 -0.051069316
-0.028095648 -0.01931533 -0.012334501 -0.21858679 0.0 -0.10176821 0.0 -0.15904735
-0.15047662 0.0 0.03583137 0.11296971 0.0047605173 0.12827316 -0.0093042245 -0.013137478
0.06621002 -0.04279916 -0.11563511 -0.11022921 -0.0111355 -0.038184427
00000000: 4a53 87bd 182c 4abd 6040 13be e2a0 0a3e
00000010: 92c0 1dbe 0000 0000 6ffb 2cbc 0f2e 51bd
00000020: d828 e6bc 2f3b 9ebc a616 4abc 37d5 5fbe
00000030: 0000 0000 da6b d0bd 0000 0000 4fdd 22be
00000040: 8b16 1abe 0000 0000 eac3 123d aa5c e73d
00000050: 1dfe 9b3b 0a5a 033e bf70 18bc 943e 57bc
00000060: 1e99 873d 2c4e 2fbd 1ad2 ecbd dabf e1bd
00000070: ac71 36bc 4667 1cbd

sequential_4/dense_14/MatMul i1 [30, 42] scale=0.008979769 zero_point=0
-0.026939308 0.008979769 0.0 0.21551447 0.13469654 0.06285839 -0.233474 0.15265608
-0.098777466 -0.22449423 -0.19755493 0.466948 0.233474 0.098777466 0.071838155 -0.10775723
-0.008979769 -0.28735262 -0.36817056 0.2963324 0.08979769 -0.350211 0.16163585 -0.116737
0.43102893 -0.026939308 0.071838155 -0.3232717 0.098777466 -0.044898845 -0.15265608 -0.2963324
0.035919078 -0.08081792 -0.044898845 -0.30531216 -0.17959538 -0.21551447 0.008979769 0.2963324
-0.008979769 0.817159 0.017959539 0.22449423 0.08081792 0.06285839 -0.17959538 -0.10775723
0.15265608 0.24245377 0.12571678 -0.16163585 -0.017959539 0.34123123 0.098777466 0.0
-0.27837285 -0.44898847 -0.08081792 -0.68246245 0.071838155 0.044898845 0.13469654 0.13469654
0.044898845 0.4938873 0.044898845 0.233474 -0.116737 -0.19755493 -0.17959538 0.053878617
0.08081792 0.4400087 0.27837285 0.39510986 0.2065347 -0.17061561 -0.08081792 -0.2963324
0.08081792 -0.30531216 -0.466948 -0.28735262 0.13469654 -0.098777466 0.008979769 -0.10775723
0.16163585 0.16163585 0.044898845 0.28735262 -0.008979769 0.80817926 -0.008979769 0.08979769
0.18857516 0.34123123 0.17061561 -0.26041332 0.035919078 0.026939308 0.17061561 0.0
-0.08979769 -0.08081792 -0.22449423 0.17061561 0.08081792 0.13469654 0.008979769 -0.026939308
-0.2065347 0.071838155 -0.28735262 -0.13469654 0.22449423 0.28735262 -0.44898847 0.06285839
-0.2693931 -0.17959538 0.18857516 -0.62858385 0.28735262 -0.80817926 -0.28735262 -0.30531216
-0.3861301 0.06285839 -0.36817056 -0.2065347 0.08081792 -0.2065347 0.008979769 -0.33225146
-0.26041332 0.071838155 0.098777466 -0.098777466 0.08979769 0.17061561 0.43102893 0.6196041
-0.36817056 -0.17959538 0.17061561 0.035919078 0.15265608 -0.24245377 0.56572545 -0.24245377
0.008979769 0.06285839 -0.13469654 0.15265608 0.044898845 -0.044898845 0.008979769 0.25143355
-0.026939308 -0.27837285 0.08081792 -0.08979769 0.15265608 0.15265608 -0.233474 0.700422
0.071838155 0.15265608 0.053878617 0.5028671 0.06285839 0.28735262 0.035919078 0.44898847
-0.466948 -0.42204916 0.035919078 -0.14367631 0.25143355 0.12571678 0.017959539 -0.053878617
-0.19755493 -0.15265608 0.19755493 0.31429192 0.08081792 -0.098777466 -0.24245377 -0.30531216
-0.27837285 -0.30531216 0.14367631 -0.16163585 -0.21551447 -0.008979769 0.13469654 -0.36817056
0.2065347 -0.7273613 -0.17959538 0.06285839 0.10775723 0.31429192 0.24245377 0.053878617
-0.098777466 0.6196041 -0.098777466 -0.26041332 -0.06285839 0.116737 0.2693931 0.233474
0.053878617 -0.16163585 0.0 -0.044898845 0.25143355 -0.27837285 0.071838155 0.17061561
-0.27837285 -0.053878617 -0.008979769 0.116737 0.18857516 -0.26041332 -0.19755493 0.071838155
0.06285839 -0.16163585 -0.008979769 -0.2065347 -0.116737 -0.16163585 0.27837285 -0.14367631
0.0 0.17959538 -0.13469654 -0.17959538 0.0 0.10775723 0.08979769 -0.233474
-0.25143355 -0.116737 -0.2693931 -0.25143355 0.233474 0.017959539 0.21551447 -0.22449423
00000000: fd01 0018 0f07 e611 f5e7 ea34 1a0b 08f4
00000010: ffe0 d721 0ad9 12f3 30fd 08dc 0bfb efdf
00000020: 04f7 fbde ece8 0121 ff5b 0219 0907 ecf4
00000030: 111b 0eee fe26 0b00 e1ce f7b4 0805 0f0f
00000040: 0537 051a f3ea ec06 0931 1f2c 17ed f7df
00000050: 09de cce0 0ff5 01f4 1212 0520 ff5a ff0a
00000060: 1526 13e3 0403 1300 f6f7 e713 090f 01fd
00000070: e908 e0f1 1920 ce07 e2ec 15ba 20a6 e0de
00000080: d507 d7e9 09e9 01db e308 0bf5 0a13 3045
00000090: d7ec 1304 11e5 3fe5 0107 f111 05fb 011c
000000a0: fde1 09f6 1111 e64e 0811 0638 0720 0432
000000b0: ccd1 04f0 1c0e 02fa eaef 1623 09f5 e5de
000000c0: e1de 10ee e8ff 0fd7 17af ec07 0c23 1b06
000000d0: f545 f5e3 f90d 1e1a 06ee 00fb 1ce1 0813
000000e0: e1fa ff0d 15e3 ea08 07ee ffe9 f3ee 1ff0
000000f0: 0014 f1ec 000c 0ae6 e4f3 e2e4 1a02 18e7
