trained_models/tflite_models/model2.tflite (tflite, 7680 bytes, 8 tensors)

sequential_3/dense_13/MatMul f4 [7, 10]
-0.039967176 -1.1986915 -0.13627426 1.095318 -0.88027817 0.2665958 -0.21170157 -0.37333843
-1.6128037 0.7797263 -1.3130792 0.8311896 -0.3740648 -1.0522865 0.6730844 0.6517279
-0.1387976 -1.7823042 0.2100996 0.73471487 1.4049437 -1.6225663 -0.9811789 -0.3325682
-1.3670484 -2.1254046 1.0400207 1.3424379 -2.4669087 -2.6248057 0.8904224 -0.3486174
-1.6660731 0.23979849 0.6104256 1.1399181 -2.3798552 -0.6012099 -0.44085634 -1.04074
-0.966963 1.5195107 1.0351024 0.07286304 -2.073468 0.002648996 1.9440638 -0.43058294
-0.48294324 0.0012974497 -0.9390563 -0.49872708 1.2692063 -0.06672768 -1.7248733 -1.8814781
-0.41688672 0.9259173 0.7868951 0.59735614 -0.6919005 0.13025136 -1.3349195 -2.0067556
1.4398986 -1.2102727 -0.45843905 1.0593336 0.38745648 -0.21926539
00000000: 9fb4 23bd b96e 99bf 7b8b 0bbe 6133 8c3f
00000010: e959 61bf 3f7f 883e 4cc8 58be 3726 bfbe
00000020: 5a70 cebf 259c 473f fb12 a8bf d7c8 543f
00000030: 6c85 bfbe 53b1 86bf 424f 2c3f a4d7 263f
00000040: f520 0ebe 8b22 e4bf 5924 573e 4616 3c3f
00000050: 32d5 b33f 41b0 cfbf 8a2e 7bbf 6146 aabe
00000060: 71fb aebf a106 08c0 661f 853f 01d5 ab3f
00000070: d5e1 1dc0 d1fc 27c0 b9f2 633f fb7d b2be
00000080: e241 d5bf bc8d 753e da44 1c3f d6e8 913f
00000090: 8c4f 18c0 e4e8 19bf ecb7 e1be f836 85bf
000000a0: e38a 77bf 547f c23f 3c7e 843f 3839 953d
000000b0: b3b3 04c0 c79a 2d3b 15d7 f83f 5e75 dcbe
000000c0: 5644 f7be 300f aa3a fe65 70bf 2859 ffbe
000000d0: 5a75 a23f 86a8 88bd a6c8 dcbf 46d4 f0bf
000000e0: 2d72 d5be eb08 6d3f f571 493f 55ec 183f
000000f0: 6420 31bf 9d60 053e a4de aabf af6e 00c0
00000100: 994e b83f 37ea 9abf 86b8 eabe 3e98 873f
00000110: b260 c63e 1b87 60be

sequential_3/dense_12/MatMul f4 [10, 20]
-0.21544604 -0.1941475 -2.1382186 -0.09485268 0.5975552 0.74651235 1.2416469 -1.7462354
0.5888252 0.2096177 0.5293722 -2.321699 1.7985015 0.36078066 0.19776462 -0.5015299
0.85161376 0.9517284 -0.14065613 2.111792 0.7632804 0.400188 0.87324136 -0.6370987
-1.4152893 -2.2117367 -1.429734 1.8612405 -0.15526603 -0.74647605 0.9094536 0.17836735
0.57476914 0.60994726 0.6095462 0.5757292 -2.0884712 -0.1773961 0.36499476 -0.3692028
1.4548696 0.3806292 0.20367609 -0.88493675 -0.27092558 -0.30642283 -0.033010483 0.95158976
1.356099 -0.08779571 0.027148135 0.1822304 -2.1146646 0.16774747 0.42564234 0.40312034
0.23476867 0.8202104 -0.62275153 -2.3229394 0.813931 -0.22355202 -0.24310833 -0.062789865
1.2815647 1.1599594 1.0970335 -0.19973329 1.0390702 -0.47280893 1.0363152 -0.20496501
-0.80846685 0.9013742 0.45667997 0.99989647 1.121136 1.0503649 -1.1326852 -0.58421534
-0.037026454 -0.37815094 0.6238518 1.8088977 0.19382769 1.2566735 -1.62396 0.9537946
-2.0059156 0.34797272 0.106736705 0.86532986 1.6635377 0.015901612 0.08127469 -0.07983313
-0.51993185 -1.737794 2.4171438 1.8743894 0.800925 0.17588027 0.18367599 1.1486188
0.038197625 0.5197587 1.3962307 -0.07340542 -0.030985106 -1.796346 1.9699329 -0.097746864
-0.0071609425 1.9947903 2.2646365 0.4221284 0.051803604 0.08586842 0.8484819 0.1168511
-3.6535983 0.3416765 -0.8372819 -0.38732693 -0.24831493 0.01595943 -0.047032606 0.42375585
0.9605563 0.3043689 0.23109843 -1.7684257 -0.29320264 0.28195527 0.30579895 0.30072907
-0.59448224 0.37576106 -1.2046223 0.07339603 -0.3357234 0.28422773 0.47397494 -0.013827443
1.4914167 1.0256687 0.3261741 0.2351516 0.59799486 2.1762886 -1.4713764 0.32777384
0.6633142 -1.0436586 -1.1996139 -0.00747456 1.0288703 0.743482 -0.2465468 0.8591154
0.26731262 0.009756437 2.456431 0.79446393 0.34231764 -1.16464 -1.5457524 2.0832653
-0.15871723 0.7706127 0.036109786 1.8460873 0.1831553 0.15952428 -0.63436466 0.53673387
0.16769414 0.27173343 1.607411 0.117742695 1.1748954 0.120120585 1.3484133 0.57937646
0.415965 0.19146377 -0.4233493 0.3631857 0.6893758 -0.22876087 0.61141795 2.1214862
-2.6550183 0.5152018 0.6967521 2.4417353 0.19624992 0.59048605 -0.06989887 -1.7787287
00000000: e39d 5cbe 9ace 46be 93d8 08c0 1f42 c2bd
00000010: 61f9 183f 6f1b 3f3f 49ee 9e3f a484 dfbf
00000020: 40bd 163f 06a6 563e f084 073f b796 14c0
00000030: 4c35 e63f 3eb8 b83e cf82 4a3e 4364 00bf
00000040: 5c03 5a3f 79a4 733f 2908 10be 9a27 0740
00000050: 5866 433f 71e5 cc3e bf8c 5f3f e718 23bf
00000060: 3328 b5bf 188d 0dc0 8601 b7bf 213d ee3f
00000070: 0ffe 1ebe 0e19 3fbf f3d1 683f eea5 363e
00000080: 1224 133f 8125 1c3f 380b 1c3f fd62 133f
00000090: 83a9 05c0 53a7 35be 98e0 ba3e 2608 bdbe
000000a0: 2b39 ba3f d5e1 c23e 7790 503e 378b 62bf
000000b0: c2b6 8abe 74e3 9cbe 0036 07bd 639b 733f
000000c0: a794 ad3f 3dce b3bd c465 de3c 9b9a 3a3e
000000d0: aa56 07c0 fec5 2b3e cbed d93e ca65 ce3e
000000e0: 3367 703e 4ff9 513f a56c 1fbf 0aab 14c0
000000f0: c85d 503f d2ea 64be 64f1 78be f997 80bd
00000100: 500a a43f 8d79 943f 986b 8c3f e286 4cbe
00000110: 4100 853f 0314 f2be faa5 843f 59e2 51be
00000120: aff7 4ebf 76c0 663f f5d1 e93e 37f9 7f3f
00000130: 6281 8f3f 5b72 863f d4fb 90bf 238f 15bf
00000140: 0da9 17bd 009d c1be c0b4 1f3f f689 e73f
00000150: c47a 463e adda a03f ecdd cfbf e22b 743f
00000160: ec60 00c0 7b29 b23e c698 da3d 4286 5d3f
00000170: ceee d43f 1944 823c 5873 a63d 8d7f a3bd
00000180: 411a 05bf 0970 debf 7cb2 1a40 feeb ef3f
00000190: 6c09 4d3f f519 343e 8f15 3c3e f105 933f
000001a0: 1d75 1c3d e80e 053f b0b7 b23f 9555 96bd
000001b0: 7ad4 fdbc aaee e5bf c326 fc3f 822f c8bd
000001c0: 57a6 eabb 4a55 ff3f ceef 1040 3721 d83e
000001d0: 0430 543d c8db af3d 1c36 593f a14f ef3d
000001e0: 8ed4 69c0 39f0 ae3e 1b58 56bf b74f c6be
000001f0: 4546 7ebe 5abd 823c 43a5 40bd 87f6 d83e
00000200: 05e7 753f 3ed6 9b3e 11a5 6c3e c65b e2bf
00000210: a81e 96be 715c 903e ae91 9c3e 29f9 993e
00000220: fd2f 18bf c163 c03e 1031 9abf a850 963d
00000230: f0e3 abbe 4c86 913e d8ac f23e 808c 62bc
00000240: bee6 be3f 1d49 833f 4b00 a73e 95cb 703e
00000250: 3116 193f 5048 0b40 1056 bcbf f9d1 a73e
00000260: f6ce 293f 9b96 85bf f38c 99bf 27ed f4bb
00000270: 06b2 833f d654 3e3f c476 7cbe fdee 5b3f
00000280: 33dd 883e 76d9 1f3c 2a36 1d40 fd61 4b3f
00000290: 4244 af3e ec12 95bf 37db c5bf 3854 0540
000002a0: c586 22be e046 453f dbe7 133d 974c ec3f
000002b0: 108d 3b3e 555a 233e b965 22bf 6467 093f
000002c0: 03b8 2b3e a520 8b3e a5bf cd3f 1523 f13d
000002d0: f962 963f c801 f63d cf98 ac3f 0452 143f
000002e0: 5df9 d43e 140f 443e 3dc1 d8be 7af3 b93e
000002f0: ef7a 303f 4a40 6abe e385 1c3f 6ec6 0740
00000300: d2eb 29c0 44e4 033f 585e 323f 6445 1c40
00000310: bdf5 483e 182a 173f 2427 8fbd 62ad e3bf

sequential_3/dense_11/MatMul f4 [20, 30]
-0.17922421 -0.07632339 -0.30426338 0.03034851 -0.55438507 0.6301715 2.5245547 -0.22427952
-0.070214204 0.261673 -0.29891312 -0.26071694 0.014052008 0.0579212 1.9430275 -0.62430215
0.10787126 0.15794486 -0.10468279 1.9957755 0.07577061 1.1720859 2.657919 1.0663174
-0.11422712 -0.023860037 0.2884112 -0.14398144 0.009515243 -1.2180567 -0.1007494 -0.17328875
0.035743497 0.002784878 -0.18336637 -0.0778702 -0.17114381 -0.21937646 -0.23602009 -0.15658818
0.29170752 -0.2287263 -0.24003126 -0.07767606 -0.020496199 -0.13900565 0.1153837 0.15516894
0.030580252 -0.2870553 -0.31501532 0.20172884 -0.3194955 -0.0726405 -0.31854257 0.02970206
0.16529533 -0.08985005 -0.1994608 -0.35968328 -1.8483438 0.09713417 0.32237524 0.090442
0.90746343 0.7605705 -0.10156967 -0.290131 2.1195142 -0.1260996 -0.29529506 -0.32528225
-0.45560622 -0.066147745 0.012090474 1.3387021 -0.065331034 0.18733335 -0.34347695 -0.053460795
-0.33845317 -0.2536176 0.12555756 -0.2895288 0.1959077 -1.4349371 0.009639822 1.4104462
0.023752607 -0.059929315 0.26730636 0.28770596 0.14151116 0.14641011 2.0798142 -0.07531489
0.025607042 -0.16930804 0.20067218 -0.16163118 -0.27699474 -0.05284956 1.6633945 -0.21650662
-0.018882845 1.9253145 0.746924 0.21264626 0.3333125 -0.008756712 0.24457766 0.17255795
-0.5972077 0.0066604214 -0.76500565 0.41781473 0.1480971 0.5880285 -0.32722747 -0.034892324
1.1018661 -0.052678436 0.1670661 -0.214692 -0.42696726 -0.5484424 -0.1395106 -0.0036530793
0.23880267 -0.04179308 -0.07743251 0.20943171 -2.0101287 0.25563115 -0.13573115 -0.35401237
-0.63822603 -0.34279153 0.14218307 -0.19129996 0.19988701 -0.3104666 -0.0788996 -0.084076256
2.2908998 0.90039515 -0.03128652 0.64902014 3.135833 1.0838263 2.0853214 -0.22138679
-0.28634506 -0.26798606 0.69669896 -0.6828151 -0.048049185 -0.2253395 -0.7973527 0.2894605
-0.0040262043 -0.04753998 3.1605458 -0.20068516 -0.10582095 -0.052862935 0.8131416 -0.1295521
-0.33677232 -0.1029344 0.16285682 -0.1792691 -0.15309574 0.025696361 -0.2720828 2.0844142
-0.010435064 -0.58924896 0.30018795 1.1687168 2.2680933 -0.30654275 -0.102094404 0.1452778
0.26350152 -1.1162643 -0.0788542 -0.06868476 -1.3453416 -0.21780002 0.19337595 0.29879647
3.3424644 0.29817235 -0.108086705 -0.81515497 0.6690479 0.3039173 -0.24454579 -0.1338205
0.27033255 -0.22198682 -0.17129827 0.27513066 -0.06702531 2.6018474 -0.011374108 -0.6078022
0.20968786 0.18572958 -2.2597475 0.15789503 0.14269674 0.30961478 1.0748976 1.3182815
0.0695519 0.2439506 1.1415932 0.012506053 0.06504533 0.18263161 -0.50699747 0.11043322
0.13000011 1.859402 -0.14621276 0.17380203 -0.0046088994 0.24033806 0.17521417 0.18838392
0.27439693 -0.20326576 0.53815246 -2.3100147 -0.13343772 0.87423795 -0.23838294 0.15511118
0.12249848 0.21130097 0.15439314 0.28752434 -1.9544979 -0.20298599 0.2624213 0.024233073
-0.35925406 -0.119641 0.09564918 -0.039517283 -1.1122967 0.10082719 0.26485726 -1.6755
00000000: 8d86 37be 704f 9cbd 69c8 9bbe 709d f83c
00000010: 2eec 0dbf eb52 213f 4e92 2140 88a9 65be
00000020: 77cc 8fbd 01fa 853e 240b 99be b17c 85be
00000030: 653a 663c c83e 6d3d 20b5 f83f 44d2 1fbf
00000040: 9beb dc3d 4cbc 213e ee63 d6bd 9275 ff3f
00000050: 9f2d 9b3d e906 963f 581b 2a40 177d 883f
00000060: e9ef e9bd 2076 c3bc a2aa 933e df6f 13be
00000070: d2e5 1b3c 48e9 9bbf b455 cebd 9b72 31be
00000080: c667 123d 8082 363b 65c4 3bbe 697a 9fbd
00000090: 5340 2fbe 39a4 60be 40af 71be a758 20be
000000a0: b05a 953e 3a37 6abe c1ca 75be a014 9fbd
000000b0: a5e7 a7bc 7f57 0ebe 4a4e ec3d 9be4 1e3e
000000c0: 7083 fa3c eaf8 92be b049 a1be 0192 4e3e
000000d0: ea94 a3be 8bc4 94bd 0318 a3be bc51 f33c
000000e0: 2e43 293e 4e03 b8bd 743f 4cbe 6828 b8be
000000f0: 8896 ecbf 48ee c63d 5e0e a53e a839 b93d
00000100: 864f 683f c0b4 423f c203 d0bd 0d8c 94be
00000110: 1fa6 0740 4120 01be ea30 97be 658b a6be
00000120: 3845 e9be 7878 87bd 2017 463c 975a ab3f
00000130: 47cc 85bd 50d4 3f3e 36dc afbe b5f9 5abd
00000140: bc49 adbe 2bda 81be 2992 003e 1e3d 94be
00000150: 079c 483e 05ac b7bf 58f0 1d3c 8089 b43f
00000160: d494 c23c 7178 75bd 61dc 883e 324e 933e
00000170: 4de8 103e 88ec 153e ad1b 0540 b13e 9abd
00000180: dcc5 d13c 165f 2dbe 027d 4d3e a582 25be
00000190: 41d2 8dbe c878 58bd 1cea d43f e9b3 5dbe
000001a0: 32b0 9abc b570 f63f 6936 3f3f f1bf 593e
000001b0: f0a7 aa3e 5078 0fbc 9172 7a3e 08b3 303e
000001c0: 9be2 18bf aa3f da3b 69d7 43bf d0eb d53e
000001d0: c4a6 173e 0989 163f 5c8a a7be 41eb 0ebd
000001e0: f309 8d3f 58c5 57bd 6013 2b3e 38d8 5bbe
000001f0: 749b dabe b966 0cbf dedb 0ebe 8068 6fbb
00000200: b088 743e 382f 2bbd f094 9ebd 4475 563e
00000210: f3a5 00c0 16e2 823e 1bfd 0abe 1c41 b5be
00000220: c862 23bf 5f82 afbe 7098 113e 23e4 43be
00000230: 2eaf 4c3e 7af5 9ebe 1d96 a1bd 2c30 acbd
00000240: 1a9e 1240 4c80 663f 4b26 00bd 2f26 263f
00000250: 7db1 4840 d2ba 8a3f e875 0540 38b3 62be
00000260: d29b 92be 7835 89be dd5a 323f f8cc 2ebf
00000270: 39cf 44bd 66bf 66be 4e1f 4cbf 2b34 943e
00000280: 40ee 83bb 48b9 42bd 6246 4a40 6980 4dbe
00000290: a7b8 d8bd ce86 58bd 0c2a 503f 4ea9 04be
000002a0: 6c6d acbe 45cf d2bd f0c3 263e 5292 37be
000002b0: 21c5 1cbe 2d81 d23c 704e 8bbe 0b67 0540
000002c0: d5f7 2abc 05d9 16bf 3cb2 993e 8398 953f
000002d0: 7128 1140 2cf3 9cbe df16 d1bd b4c3 143e
000002e0: ace9 863e c0e1 8ebf 507e a1bd 98aa 8cbd
000002f0: 2734 acbf f806 5fbe 5804 463e dafb 983e
00000300: f0ea 5540 0caa 983e 905c ddbd ffad 50bf
00000310: b946 2b3f 0c9b 9b3e 366a 7abe 3e08 09be
00000320: 0769 8a3e 8350 63be d068 2fbe eddd 8c3e
00000330: 9144 89bd ab84 2640 775a 3abc ed98 1bbf
00000340: 6ab8 563e e52f 3e3e b49f 10c0 3caf 213e
00000350: 181f 123e d485 9e3e 3f96 893f 73bd a83f
00000360: 3a71 8e3d 30ce 793e ba1f 923f 30e6 4c3c
00000370: 7c36 853d c803 3b3e 96ca 01bf d02a e23d
00000380: c01e 053e e200 ee3f ccb8 15be 29f9 313e
00000390: 4006 97bb 2e1b 763e 586b 333e b7e7 403e
000003a0: c17d 8c3e e624 50be 5cc4 093f 48d7 13c0
000003b0: e6a3 08be 0fce 5f3f a81a 74be 77d5 1e3e
000003c0: 7ce0 fa3d 485f 583e 3c19 1e3e 6436 933e
000003d0: fd2c fabf 8fdb 4fbe 165c 863e 7084 c63c
000003e0: 26f0 b7be 5706 f5bd b8e3 c33d e0dc 21bd
000003f0: bd5f 8ebf 7c7e ce3d 5f9b 873e c976 d6bf

sequential_3/dense_13/BiasAdd/ReadVariableOp f4 [7]
0.26231515 0.4949659 0.8949365 -0.25302193 -1.1962842 0.22275399 -0.24188605
00000000: 2c4e 863e 2c6c fd3e 8f1a 653f 178c 81be
00000010: d71f 99bf 9f19 643e fab0 77be

sequential_3/dense_12/BiasAdd/ReadVariableOp f4 [10]
0.9769645 -0.42051125 0.13131484 0.3035438 0.5266194 0.28256148 1.4118968 1.1794584
0.4715475 0.2626204
00000000: 581a 7a3f 404d d7be 6677 063e 186a 9b3e
00000010: 87d0 063f e6ab 903e 09b9 b43f 7ef8 963f
00000020: ad6e f13e 2e76 863e

sequential_3/dense_11/BiasAdd/ReadVariableOp f4 [20]
0.025193006 -0.18562539 -0.0035239789 -0.059095267 0.15464482 0.10368865 0.05998325 -0.10065587
-0.013080965 0.106033236 -0.10293169 -0.00493334 0.0853033 -0.08086902 -0.06861545 -0.03340039
0.21108988 0.026354682 -0.14145297 0.08584489
00000000: 9061 ce3c 9514 3ebe 8ef2 66bb e10d 72bd
00000010: 365b 1e3e b75a d43d ffb0 753d aa24 cebd
00000020: 8b51 56bc f427 d93d dacd d2bd dba7 a1bb
00000030: 7fb3 ae3d a89e a5bd 4286 8cbd d9ce 08bd
00000040: f227 583e c6e5 d73c 0cd9 10be 72cf af3d

sequential_3/dense_10/BiasAdd/ReadVariableOp f4 [30]
0.09330774 0.0 -0.0073021404 0.0 -0.03386868 -0.058330543 0.16609313 0.0
-0.24127488 -0.0028581463 0.0 0.0 -0.08379659 -0.00915999 0.1241001 -0.12518628
-0.23509885 -0.016069263 0.0 0.08687718 -0.010305114 -0.06321128 -0.02827869 0.19014135
0.015139673 0.077616915 -0.028202359 -0.02328826 0.07971079 0.13293998
00000000: 2118 bf3d 0000 0000 cb46 efbb 0000 0000
00000010: e3b9 0abd 02ec 6ebd 5114 2a3e 0000 0000
00000020: c310 77be bd4f 3bbb 0000 0000 0000 0000
00000030: 8c9d abbd c813 16bc 3128 fe3d d530 00be
00000040: c1bd 70be b0a3 83bc 0000 0000 aaec b13d
00000050: c8d6 28bc ea74 81bd b6a8 e7bc 6ab4 423e
00000060: 640c 783c 9ef5 9e3d a208 e7bc 05c7 bebc
00000070: 693f a33d 6b21 083e

sequential_3/dense_10/MatMul i1 [30, 42] scale=0.009117284 zero_point=0
0.41939506 -0.1732284 0.027351853 -0.06382099 -0.21881482 -0.054703705 -0.054703705 -0.10940741
-0.41939506 0.12764198 -0.082055554 0.06382099 0.12764198 -0.37380865 -0.16411111 0.25528395
-0.42851233 0.6929136 0.10940741 0.09117284 -0.2826358 -0.027351853 -0.3464568 -0.2826358
-0.48321605 -0.48321605 0.25528395 -0.2826358 0.24616666 -0.41027778 0.3373395 0.07293827
0.3920432 -0.38292593 0.1732284 -0.009117284 0.41939506 0.21881482 -0.07293827 0.5561543
0.09117284 0.52880245 -0.21881482 -0.2826358 -0.12764198 -0.009117284 -0.18234567 -0.018234568
0.082055554 -0.23704939 -0.11852469 -0.25528395 -0.2826358 0.10940741 -0.06382099 0.15499383
-0.26440123 0.09117284 -0.2735185 0.21881482 -0.12764198 -0.18234567 -0.2826358 -0.04558642
0.10940741 0.009117284 -0.18234567 0.23704939 0.04558642 0.19146296 -0.26440123 0.082055554
0.20969753 -0.11852469 0.20058024 -0.10940741 -0.25528395 -0.2735185 -0.027351853 -0.21881482
-0.018234568 -0.018234568 0.1732284 0.12764198 -0.20969753 -0.15499383 -0.15499383 0.018234568
0.018234568 0.027351853 0.10029012 0.18234567 -0.18234567 -0.13675925 0.15499383 0.10029012
-0.018234568 -0.16411111 -0.009117284 -0.11852469 -0.13675925 0.0 -0.07293827 0.18234567
0.21881482 -0.082055554 -0.25528395 -0.10940741 -0.07293827 0.036469135 -0.18234567 -0.25528395
0.21881482 -0.20969753 0.19146296 -0.054703705 0.082055554 -0.10029012 0.09117284 -0.21881482
-0.027351853 -0.16411111 0.11852469 0.10940741 0.24616666 0.15499383 -0.16411111 -0.036469135
0.20058024 -0.2279321 0.09117284 -0.20058024 -0.14587654 -0.10940741 -0.1732284 -0.2735185
0.10029012 -0.21881482 -0.24616666 0.009117284 -0.25528395 -0.027351853 0.15499383 0.26440123
-0.20058024 0.0 -0.018234568 -0.20058024 0.10940741 0.21881482 -0.16411111 0.018234568
0.11852469 0.25528395 0.2279321 0.19146296 0.018234568 -0.10029012 -0.14587654 0.10029012
0.16411111 -0.009117284 0.10940741 -0.26440123 0.2826358 0.11852469 -0.07293827 -0.018234568
-0.009117284 -0.3464568 0.5561543 0.30998766 0.15499383 0.32822222 0.3920432 0.21881482
0.25528395 -0.036469135 0.31910494 -0.04558642 0.16411111 -0.018234568 -0.10940741 -0.32822222
-0.16411111 -0.70203084 -0.06382099 0.13675925 0.2735185 0.3373395 -0.43762964 0.07293827
-0.5926235 -0.10940741 -0.38292593 -0.14587654 -0.09117284 -0.1732284 0.25528395 -0.009117284
0.07293827 -0.3464568 -0.2826358 0.10029012 -0.082055554 0.3373395 -0.2826358 0.14587654
-0.018234568 0.13675925 -0.42851233 0.11852469 -0.054703705 0.027351853 0.13675925 0.12764198
0.21881482 0.3373395 0.2826358 -0.21881482 -0.09117284 0.18234567 0.06382099 -0.036469135
0.1732284 -0.31910494 0.15499383 -1.1578951 -0.1732284 0.10940741 0.10940741 -0.04558642
0.30998766 0.58350617 0.30087036 0.1732284 -0.11852469 0.11852469 0.009117284 0.018234568
-0.04558642 0.10940741 0.12764198 -0.09117284 -0.6837963 -0.018234568 -0.25528395 0.009117284
-0.10940741 0.04558642 -0.036469135 -0.25528395 -0.610858 -0.19146296 -0.49233332 -0.20058024
00000000: 2eed 03f9 e8fa faf4 d20e f707 0ed7 ee1c
00000010: d14c 0c0a e1fd dae1 cbcb 1ce1 1bd3 2508
00000020: 2bd6 13ff 2e18 f83d 0a3a e8e1 f2ff ecfe
00000030: 09e6 f3e4 e10c f911 e30a e218 f2ec e1fb
00000040: 0c01 ec1a 0515 e309 17f3 16f4 e4e2 fde8
00000050: fefe 130e e9ef ef02 0203 0b14 ecf1 110b
00000060: feee fff3 f100 f814 18f7 e4f4 f804 ece4
00000070: 18e9 15fa 09f5 0ae8 fdee 0d0c 1b11 eefc
00000080: 16e7 0aea f0f4 ede2 0be8 e501 e4fd 111d
00000090: ea00 feea 0c18 ee02 0d1c 1915 02f5 f00b
000000a0: 12ff 0ce3 1f0d f8fe ffda 3d22 1124 2b18
000000b0: 1cfc 23fb 12fe f4dc eeb3 f90f 1e25 d008
000000c0: bff4 d6f0 f6ed 1cff 08da e10b f725 e110
000000d0: fe0f d10d fa03 0f0e 1825 1fe8 f614 07fc
000000e0: 13dd 1181 ed0c 0cfb 2240 2113 f30d 0102
000000f0: fb0c 0ef6 b5fe e401 f405 fce4 bdeb caea
